Model: "sequential_7"
_________________________________________________________________
 Layer (type)                Output Shape              Param #   
=================================================================
 Hidden_Layer_1 (Dense)      (None, 512)               2253312   
                                                                 
 dropout_1 (Dropout)         (None, 512)               0         
                                                                 
 Hidden_Layer_2 (Dense)      (None, 256)               131328    
                                                                 
 dropout_2 (Dropout)         (None, 256)               0         
                                                                 
 Hidden_Layer_3 (Dense)      (None, 128)               32896     
                                                                 
 dropout_3 (Dropout)         (None, 128)               0         
                                                                 
 Output_Layer (Dense)        (None, 10)                1290      
                                                                 
=================================================================
Total params: 2418826 (9.23 MB)
Trainable params: 2418826 (9.23 MB)
Non-trainable params: 0 (0.00 Byte)
_________________________________________________________________


Test Accuracy: 93.32%

CM
[[1982,    0,    0,    3,    0,    0,    2,   12,    1,    0],
[   0, 1977,   16,    0,    0,    0,    0,    0,    0,    7],
…
